models/cartpole_model.pth (torch, 3976 bytes, 4 tensors)

0.weight f4 [64, 4]
0	0xbf046500	-0.51716614
1	0xbccc7e7a	-0.024962652
2	0xbea53209	-0.32264736
3	0x3e4b2933	0.19839935
4	0x3e659504	0.22420126
5	0x3ea32440	0.31863594
6	0x3e95b938	0.29242873
7	0xbe23af90	-0.1598494
8	0xbf543980	-0.8290024
9	0xbeaf0f4a	-0.34191352
10	0x3e3e690b	0.18594758
11	0x3e2074f5	0.15669616
12	0xbe8c95d2	-0.27458054
13	0x3e5875ec	0.21138734
14	0x3e975450	0.29556513
15	0xbe2ca384	-0.16859251
16	0xbe9c4e6d	-0.30528584
17	0xbe619602	-0.2202988
18	0xbe0192ba	-0.12653628
19	0x3f1e902b	0.6193873
20	0xbec3af5f	-0.38219735
21	0xbe3e2191	-0.18567492
22	0x3ede98d5	0.43475977
23	0x3f194d80	0.5988388
24	0xbea4ef9e	-0.32214063
25	0x3d90945d	0.07059548
26	0x3e31d70a	0.17367187
27	0xbeb2aa29	-0.34895447
28	0xbefadf2c	-0.48998392
29	0xbefb3a7a	-0.49068052
30	0x3e063596	0.13106379
31	0x3ef2c699	0.47417143
32	0x3e28d155	0.16486104
33	0xbee7fabb	-0.4530848
34	0x3ee5f544	0.44913685
35	0x3f21a7c3	0.6314661
36	0xbdead562	-0.11466481
37	0xbdf0ecbc	-0.117639035
38	0xbf0da057	-0.55322784
39	0xbe4331b6	-0.19061932
40	0xbcb2d3d8	-0.02182953
41	0xbe901871	-0.28143647
42	0x3d667990	0.056268275
43	0x3d3403d5	0.043948967
44	0x3dfd7fa5	0.12377862
45	0xbe8feff5	-0.2811276
46	0xbf187d7b	-0.5956647
47	0x3de6a9cb	0.11262854
48	0xbea2503c	-0.3170184
49	0xbe93c2ea	-0.28859645
50	0x3e2b3648	0.16719925
51	0xbea50b6a	-0.3223527
52	0xbe9189d9	-0.28425482
53	0x3f0cd578	0.5501323
54	0xbdbabfcd	-0.09118614
55	0x3dbf5452	0.09342255
56	0xbf15fe5f	-0.58591264
57	0xbe0c7381	-0.13715936
58	0xbe094a68	-0.1340729
59	0x3d13c27f	0.036074158
60	0xbf0e47da	-0.55578387
61	0x3e824aba	0.25447637
62	0x3db6c9fe	0.08925246
63	0xbe28ae3e	-0.16472718
64	0x3e537054	0.20648319
65	0x3dc3f2d8	0.09567803
66	0xbed3bc0e	-0.41354412
67	0xbe87b976	-0.26508683
68	0xbd6bc138	-0.057557315
69	0xbd1fece4	-0.039044276
70	0xbeb589c5	-0.35456672
71	0x3e2fd36a	0.17170492
72	0xbec8f6e7	-0.39250872
73	0x3d8dfef6	0.069333956
74	0xbd22c06f	-0.0397343
75	0xbea5983e	-0.32342714
76	0x3d72ed59	0.059308384
77	0xbe956cab	-0.2918447
78	0xbe84302c	-0.25818002
79	0x3ea3b516	0.31974095
80	0x3eae89fe	0.34089655
81	0x3d890d70	0.06692016
82	0x3ea096e0	0.31365108
83	0xbba49800	-0.0050230026
84	0xbf5ea40c	-0.86969066
85	0xbeb183d3	-0.34670886
86	0x3db63c65	0.08898238
87	0x3f09e86b	0.53870267
88	0xbdabf00f	-0.08395397
89	0x3ecc3eb2	0.39891583
90	0xbf0e373d	-0.55553037
91	0xbeb94502	-0.3618546
92	0x3e9d4d7e	0.30723184
93	0x3eebd218	0.46058726
94	0xbeeef646	-0.46672267
95	0xbe179688	-0.14803517
96	0xbe090d49	-0.13383974
97	0x3ebc02d3	0.36720905
98	0xbe8d0d5d	-0.27549258
99	0x3e08100e	0.13287374
100	0x3e28b950	0.16476941
101	0x3e39281c	0.18081707
102	0x3d850d00	0.0649662
103	0x3e30fbc0	0.17283535
104	0xbf12726f	-0.5720586
105	0xbe57e4c0	-0.21083355
106	0xbe4ab294	-0.19794685
107	0x3f03862e	0.51376617
108	0xbe80f2aa	-0.25185138
109	0x3eb2395c	0.34809387
110	0xbe9ff880	-0.31244278
111	0x3d2c8d10	0.042126715
112	0xbdf4c072	-0.119507685
113	0xbeb41dd1	-0.35178998
114	0xbe0ff476	-0.14058098
115	0x3d35cc19	0.044384096
116	0x3c4114e3	0.011784765
117	0x3e6d0a75	0.2314852
118	0xbe844377	-0.25832722
119	0xbf1687dc	-0.58801055
120	0xbedcd337	-0.43129894
121	0x3f092531	0.53572375
122	0x3f40505d	0.75122625
123	0x3e83ac8e	0.25717586
124	0x3eb99d4f	0.3625283
125	0xbdd2d20d	-0.1029397
126	0x3ea713a3	0.3263217
127	0x3dcc6a01	0.09981156
128	0xbe251bb6	-0.16123852
129	0x3d4f8b8c	0.05067019
130	0xbf23f2b8	-0.64042234
131	0x3e55973e	0.20858476
132	0x3e61da1e	0.22055861
133	0x3f022d34	0.50850224
134	0x3dfe8ef4	0.1242961
135	0xbeb8bab2	-0.36079937
136	0xbea00a2c	-0.3125776
137	0xbea1bbb4	-0.3158852
138	0x3ee1f1e8	0.44129872
139	0x3f022e37	0.5085177
140	0x3e25a585	0.16176422
141	0x3e2c6df4	0.16838819
142	0x3e223da0	0.1584382
143	0x3ce48896	0.02789716
144	0x3e5d62a2	0.21619657
145	0x3ec337e1	0.3812857
146	0xbe910315	-0.28322664
147	0xbe684fe5	-0.22686727
148	0xbd83907f	-0.06424045
149	0x3db01867	0.085984044
150	0xbe1ef5c6	-0.15523443
151	0x3f1c76ba	0.6111866
152	0xbd634fc0	-0.055495977
153	0x3eaf7072	0.34265476
154	0xbee7e750	-0.45293665
155	0xbe3aef38	-0.18255317
156	0xbeb9a996	-0.36262196
157	0xbf1c5cab	-0.610789
158	0xbf026315	-0.5093244
159	0x3e8acbc3	0.27108583
160	0xbf32fd5d	-0.6991785
161	0xbeb7fe5e	-0.35936254
162	0xbd60d07c	-0.054886326
163	0x3f107f7f	0.56444544
164	0x3e8880c6	0.26660746
165	0xbec3688c	-0.381657
166	0xbe1aed74	-0.15129644
167	0xbeacfdac	-0.33787286
168	0x3e0a6312	0.13514355
169	0x3e9cb444	0.30606282
170	0x3d9f182c	0.07768282
171	0xbed1be7e	-0.40965647
172	0x3e646f40	0.22308064
173	0x3d5dc0aa	0.054138817
174	0x3d883d03	0.06652262
175	0x3e52f70d	0.20602055
176	0xbf223d06	-0.63374364
177	0x3ed010fa	0.40637952
178	0xbe7ceaa0	-0.24698877
179	0x3edfe100	0.4372635
180	0xbe3b6f5a	-0.18304196
181	0xbeabeffd	-0.33581534
182	0xbecf5dd7	-0.40501282
183	0x3c98b0c6	0.01863898
184	0x3e38b691	0.18038394
185	0xbdeb42b7	-0.11487334
186	0xbe2916ce	-0.16512606
187	0x3eea1d48	0.45725465
188	0x3d713de0	0.0588969
189	0xbe9ab362	-0.30214983
190	0x3e84e17b	0.25953278
191	0x3ef46f1f	0.4774103
192	0x3eb3810e	0.35059398
193	0x3e82e770	0.25567198
194	0x3e822ce8	0.25424886
195	0x3e0cfbc3	0.13767914
196	0xbf161f16	-0.58641183
197	0xbf153d7e	-0.58296955
198	0x3dbbe503	0.0917454
199	0x3f026e0a	0.50949156
200	0xbeba6788	-0.36407113
201	0x3e893888	0.26800942
202	0x3e83059a	0.2559021
203	0xbe670ae8	-0.22562754
204	0xbc83abda	-0.016073156
205	0x3d8bd148	0.068270266
206	0x3e58cae2	0.21171144
207	0x3edff76a	0.4374345
208	0xbc85e1e7	-0.01634307
209	0x3e95d4c5	0.29263893
210	0xbe5ad6a3	-0.2137094
211	0x3e286efe	0.1644859
212	0x3d953f80	0.07287502
213	0xbeb1cd96	-0.34727162
214	0xbe17dc40	-0.14830112
215	0xbe727d68	-0.23680651
216	0xbf552569	-0.8326021
217	0xbe072890	-0.13199067
218	0xbdea77fd	-0.11448667
219	0x3edf2a4b	0.43586954
220	0x3dddbfc0	0.10827589
221	0x3efafdb2	0.4902168
222	0xbe83946e	-0.2569918
223	0x3dac4b58	0.08412808
224	0xbe2df362	-0.16987374
225	0x3e8c3fc3	0.27392396
226	0x3d0ffc85	0.03515293
227	0xbc874aac	-0.016515099
228	0xbd9f4b58	-0.077780426
229	0xbe9497d9	-0.290221
230	0x3d8b934a	0.068152025
231	0x3f61136e	0.8792027
232	0xbec0af62	-0.37633806
233	0xbdc8c7d0	-0.09803736
234	0xbee1b7c0	-0.44085503
235	0xbe017c78	-0.12645137
236	0x3eaa1dc2	0.33225828
237	0xbeec078a	-0.46099502
238	0xbef53c98	-0.47897792
239	0xbef069de	-0.4695577
240	0x3cf14bf5	0.029455164
241	0xbf172e50	-0.5905504
242	0x3e8afc9a	0.27145845
243	0x3e5d7780	0.21627617
244	0xbf01ca65	-0.50699455
245	0xbf05def2	-0.5229331
246	0x3e8d1f5f	0.27562997
247	0x3ef34383	0.47512445
248	0xbdc98a1f	-0.09840798
249	0xbe6437c0	-0.22286892
250	0x3e09bf78	0.13451946
251	0x3ebfe6c0	0.37480736
252	0xbf172d30	-0.59053326
253	0x3e9ebcd8	0.3100345
254	0xbd9a7acc	-0.07542953
255	0x3e89ff23	0.26952466

0.bias f4 [64]
0	0x3ec61f31	0.38695672
1	0xbd46e47f	-0.048557755
2	0x3f0c6fed	0.54858285
3	0xbe950ea2	-0.29112726
4	0x3f0d9a9c	0.5531404
5	0xbe8bdbbd	-0.27316085
6	0xbca36d21	-0.019949498
7	0x3f01b6de	0.5066966
8	0x4023790e	2.5542636
9	0xbe3b17f5	-0.18270858
10	0xbe8ed78e	-0.2789883
11	0x3ee89936	0.4542939
12	0xbe969e4e	-0.29417652
13	0x3d214203	0.039369594
14	0x3f30d3ef	0.69073385
15	0x3e2225fb	0.15834801
16	0xbe8030a4	-0.2503711
17	0x3ebaec46	0.36508387
18	0x3da82915	0.08210961
19	0x3e9868e2	0.2976752
20	0xbde484e8	-0.11158162
21	0x3f5a5b86	0.85295904
22	0x3eee0c0d	0.4649357
23	0xbe191a98	-0.14951551
24	0xbe0aa423	-0.13539176
25	0xbea2e9b2	-0.3181892
26	0x3f1f7ca5	0.6229957
27	0xbe682f7c	-0.22674364
28	0x3ed0433c	0.40676296
29	0x3e49f8f9	0.19723882
30	0x3ed89336	0.42299813
31	0xbea00368	-0.312526
32	0x3b3f2ada	0.0029169829
33	0x3e05916b	0.13043754
34	0x3d0835b1	0.03325433
35	0xbe0bbb2a	-0.13645616
36	0x3e72cac5	0.23710163
37	0x3f05fb66	0.5233673
38	0xbde1b708	-0.110212386
39	0x3ed4e7f5	0.4158322
40	0x3f001daa	0.50045264
41	0xbef582ae	-0.47951263
42	0x3ed09bda	0.40743905
43	0xbee1bb96	-0.4408843
44	0x3ee48679	0.44633844
45	0x3f1d1aa4	0.61368775
46	0x3eef7b48	0.46773744
47	0xbe7544e5	-0.23952062
48	0x3e92374c	0.28557813
49	0x3f473f61	0.77831084
50	0xbee9ccd2	-0.45664078
51	0x3f56cba5	0.83904487
52	0xbe103d92	-0.14085987
53	0xbd985680	-0.074383736
54	0x3f2f7b31	0.6854735
55	0xbe424d34	-0.18974763
56	0x3f3d3af1	0.7391806
57	0x3eee09c9	0.4649184
58	0xbee9cefa	-0.45665723
59	0xbea721fc	-0.32643116
60	0x3e3b7e02	0.18309787
61	0x3e739de3	0.23790698
62	0x3f405a6e	0.75137985
63	0x3f29e66b	0.66367215

2.weight f4 [2, 64]
0	0x3eacda45	0.33760276
1	0x3cf31d9e	0.029677209
2	0x3e8561ad	0.26051083
3	0x3da9ab10	0.08284581
4	0x3e6e8692	0.23293522
5	0x3e4fedbc	0.20305532
6	0xbd6a5c43	-0.057216894
7	0x3dcbda68	0.09953767
8	0x402aced7	2.6688745
9	0x3e4b3710	0.19845223
10	0x3d5018f7	0.05080506
11	0x3dd61061	0.10452343
12	0x3dace326	0.084417626
13	0x3c5a854d	0.013337445
14	0x3e953eaf	0.29149386
15	0x3db15e74	0.08660594
16	0x3dc7cd20	0.09755921
17	0x3e7a4068	0.24438632
18	0x3d6f749d	0.05846082
19	0x3e89f849	0.2694724
20	0xbb225580	-0.00247702
21	0x3e3d044d	0.18458672
22	0x3e0ac954	0.13553363
23	0xbc0d4090	-0.00862135
24	0x3d6efd47	0.058347013
25	0xbdb2a47e	-0.08722781
26	0x3f1498b3	0.580455
27	0x3db258d2	0.087083474
28	0x3e9a0057	0.30078384
29	0x3d027127	0.03184619
30	0x3e7b54c6	0.24544057
31	0xbc00906b	-0.007846932
32	0x3dc7c899	0.09755058
33	0x3bf9d00a	0.007623677
34	0x3e666b4d	0.2250187
35	0xbdf456a8	-0.11930591
36	0x3d84aaf7	0.064779215
37	0x3ea172d9	0.31532934
38	0x3c5bf6b0	0.013425514
39	0x3e801c02	0.25021368
40	0x3ea2fb1b	0.31832203
41	0x3bfb9380	0.0076774955
42	0x3dc559e8	0.09636289
43	0x3cc42d01	0.02394724
44	0x3dcc502a	0.099762276
45	0x3e95b9b7	0.29243252
46	0x3e163b76	0.1467112
47	0x3e6ba7ff	0.23013304
48	0x3bf49bf3	0.0074648797
49	0x3e99358b	0.29923663
50	0x3db2b108	0.08725172
51	0x3e6e051f	0.23244141
52	0x3df2f8f4	0.1186389
53	0xbb3f3a40	-0.0029179007
54	0x3ea924c8	0.33035874
55	0xbca0a7b8	-0.019611225
56	0x3dba5a87	0.09099298
57	0x3e21459f	0.15749215
58	0x3dc7e59e	0.09760593
59	0x3d8c4120	0.06848359
60	0x3e2a115f	0.16608189
61	0x3e658dc8	0.22417367
62	0x3e8432d3	0.25820026
63	0x3e8e54e1	0.27799132
64	0xbec251cf	-0.3795304
65	0xbdd2c663	-0.102917455
66	0xbedfb4f0	-0.43692732
67	0xbdfc2c22	-0.12313105
68	0xbea2d6ab	-0.31804404
69	0xbe3a3f0f	-0.18188117
70	0x3b68aaf9	0.0035502298
71	0xbee725c3	-0.45145997
72	0xc03c9bb8	-2.9470043
73	0xbcd88782	-0.026431803
74	0xbc901f14	-0.017592944
75	0xbe948b87	-0.290127
76	0xbccc6e60	-0.024954975
77	0xbce38b77	-0.027776463
78	0xbeddc8d4	-0.43317282
79	0xbd8d5709	-0.06901366
80	0xbdad3512	-0.08457388
81	0xbe53e492	-0.20692661
82	0xbdc68a14	-0.09694305
83	0xbe68c437	-0.227311
84	0x3ca99fe8	0.020706132
85	0xbf0dcdd6	-0.55392206
86	0xbe986e27	-0.2977154
87	0x3db5a0fc	0.08868596
88	0x3d7d285f	0.06180608
89	0x3de18598	0.11011809
90	0xbf5849b6	-0.84487474
91	0x3dda4b74	0.10658923
92	0xbe8e0e52	-0.277453
93	0xbdd853cc	-0.10562858
94	0xbf083e9c	-0.53220534
95	0x3b609b4e	0.0034272256
96	0xbd0bbae0	-0.034113765
97	0xbd8644bf	-0.06556081
98	0xbd441b50	-0.04787761
99	0x3d036acd	0.032084275
100	0xbdc7c3df	-0.09754156
101	0xbea51835	-0.3224503
102	0x3c497d20	0.0122978985
103	0xbea3b2e2	-0.31972414
104	0xbebc7ced	-0.3681406
105	0x3decf89a	0.115708545
106	0xbe9c5f18	-0.305413
107	0xbd45f703	-0.04833127
108	0xbea442d8	-0.32082248
109	0xbefbfdee	-0.4921717
110	0xbea7efc9	-0.3280013
111	0xbd172457	-0.03689989
112	0xbe666b67	-0.22501908
113	0xbf0262bc	-0.50931907
114	0xbca3cae0	-0.0199942
115	0xbec9232e	-0.39284652
116	0xbc999311	-0.018746885
117	0x3ccba070	0.024856776
118	0xbec75e41	-0.38939098
119	0xbd79d3a0	-0.060992837
120	0xbee69384	-0.4503442
121	0xbed11c00	-0.40841675
122	0x3db99dc4	0.090632945
123	0x3def9c3a	0.1169972
124	0xbe6e6368	-0.23280108
125	0xbea0ee3d	-0.3143176
126	0xbf07c2fc	-0.530319
127	0xbeacafb5	-0.33727804

2.bias f4 [2]
0	0x3e501ca0	0.2032342
1	0xbea9d1c9	-0.33167866
