models/cartpole.pth (torch, 8210 bytes, 6 tensors)

0.weight f4 [24, 4]
-0.1406285 0.99146 2.4605308 0.94806564 0.06888985 -0.16555955 -0.034566544 -0.19541007
-0.009973293 0.15653305 -0.5258927 -0.0042768987 0.10857491 0.44466314 -1.9683166 0.1745868
2.0403414 0.5665578 1.9302503 0.1394886 0.7306484 -0.84161425 -2.5439427 -0.95915306
-2.0829337 0.55137753 0.7464759 -0.026538888 -1.9947901 -3.3352513 -9.292277 -2.97336
0.19553383 -0.2008394 -0.9731926 0.27746916 -3.7913783 -3.786643 -3.0131326 -2.6127691
-0.3994602 -0.23582067 -2.3684692 0.20862614 0.28356475 -0.08496768 0.03712163 0.55851614
-0.310611 0.49902058 -1.0996183 0.36792246 0.040498883 0.21556462 0.18156862 -0.016226374
-0.24971664 2.4807084 0.025102882 2.79273 0.19756217 0.026643183 0.10677534 0.28080714
0.4518205 0.2099854 2.2706206 0.37265128 -0.11163914 0.22567606 -0.13005577 0.19032371
-0.256057 -1.4199773 -3.4072173 0.34575045 2.249359 2.18811 13.246848 2.0442197
-1.8152984 -1.1131569 2.5141554 0.5256379 1.4660486 1.1952496 3.2210593 1.456275
-0.71318394 -3.2866848 -6.7711926 -2.4991996 -0.21643294 0.05522403 0.15504147 -0.25440034
00000000: eb00 10be 53d0 7d3f 5679 1d40 6eb4 723f
00000010: 1f16 8d3d 7188 29be a695 0dbd 9419 48be
00000020: 0667 23bc 334a 203e e7a0 06bf 3a25 8cbb
00000030: 865c de3d e3aa e33e ccf1 fbbf e2c6 323e
00000040: f494 0240 ef09 113f 7112 f73f 19d6 0e3e
00000050: c60b 3b3f 0874 57bf f5cf 22c0 0e8b 75bf
00000060: c94e 05c0 1427 0d3f 0b19 3f3f 1568 d9bc
00000070: 4855 ffbf c274 55c0 2bad 14c1 884b 3ec0
00000080: 053a 483e d8a8 4dbe 2623 79bf 7010 8e3e
00000090: f1a5 72c0 5c58 72c0 2ad7 40c0 9c37 27c0
000000a0: 0c86 ccbe f97a 71be 0095 17c0 17a2 553e
000000b0: 662f 913e 8903 aebd da0c 183d eafa 0e3f
000000c0: 6808 9fbe a07f ff3e 4bc0 8cbf 5560 bc3e
000000d0: 28e2 253d f9bc 5c3e 20ed 393e 2ced 84bc
000000e0: b8b5 7fbe edc3 1e40 8fa4 cd3c 17bc 3240
000000f0: bd4d 4a3e ce42 da3c 08ad da3d f4c5 8f3e
00000100: 0455 e73e 6a06 573e d951 1140 26cc be3e
00000110: 10a3 e4bd a017 673e 572d 05be 38e4 423e
00000120: e719 83be d1c1 b5bf d90f 5ac0 3406 b13e
00000130: 7ff5 0f40 ff09 0c40 17f3 5341 7fd4 0240
00000140: b35b e8bf ed7b 8ebf ece7 2040 3590 063f
00000150: 7ba7 bb3f f0fd 983f d625 4e40 3867 ba3f
00000160: 3993 36bf 0b59 52c0 9cad d8c0 e3f2 1fc0
00000170: 99a0 5dbe 9832 623d 31c3 1e3e c340 82be

0.bias f4 [24]
0.5663013 -0.4380409 1.3998919 0.98984545 3.1281161 0.9454308 0.48758247 0.986419
0.9823138 0.028753461 0.46028808 1.4867511 0.5380317 1.6548445 -1.5185373 1.3972086
1.1240728 -0.5548141 0.35392827 -0.051637642 0.28156972 2.1003008 0.3970421 0.47813016
00000000: 1ff9 103f e646 e0be a82f b33f 8366 7d3f
00000010: 0e33 4840 c107 723f 69a4 f93e f585 7c3f
00000020: eb78 7b3f 618c eb3c e1aa eb3e dc4d be3f
00000030: 72bc 093f f2d1 d33f 6e5f c2bf bbd7 b23f
00000040: 9ee1 8f3f 4c08 0ebf 1636 b53e fe81 53bd
00000050: e829 903e 546b 0640 1a49 cb3e 7acd f43e

2.weight f4 [48, 24]
-0.1833469 0.2003203 -0.3451523 -0.4175089 -0.3476892 -0.320537 -0.15264563 -0.040679075
-0.42147166 -0.14183418 -0.49867755 -0.4337437 -0.0230225 -0.09634438 0.024693847 -0.33696812
0.062080435 -0.014019176 0.005773324 -0.22184281 -0.44732344 -0.16799 0.040102072 -0.22698013
-0.14958863 -0.1910433 0.68424463 0.25833076 2.4061584 -0.63698816 -0.5502537 -1.6065196
0.51274383 -1.3895756 0.26145113 0.6097225 0.30624592 0.65575427 -1.4998058 0.7212603
0.72751385 -0.27144536 -0.1701246 -0.98919916 -2.9650009 1.1648712 -4.928397 0.46145958
0.08242214 -0.013490513 -0.2917054 -0.28841972 0.022648348 -0.0328932 -0.090938576 -0.2030864
0.055446144 0.035469532 -0.035865698 -0.11133451 -0.2875983 -0.1372438 -0.08068293 -0.31054103
-0.3144387 0.16342306 -0.2853659 -0.12117642 -0.19465967 -0.07289475 -0.07212169 -0.21990998
0.21330789 -0.14762403 0.8857224 0.7393811 2.4478114 -1.7309952 0.04789405 -1.8202755
0.75736743 -1.1170834 0.08234987 0.8307667 0.4894354 0.9435874 -1.3067666 1.079003
0.22038734 -0.27791882 -0.06463854 -0.8035864 -2.5736375 1.6250225 -6.1853585 0.2534954
0.076102346 0.101796776 -0.21377224 -0.3278744 -0.18396425 -0.09614365 -0.15981631 -0.15806744
-0.28493148 0.14318153 -0.20135303 -0.2771043 -0.0548497 -0.11955872 0.100704804 -0.11227653
-0.18758641 -0.105565056 -0.20475355 -0.17913479 -0.2459459 -0.30544904 -0.117211 0.15777843
0.12314275 0.11924034 -0.32273996 -0.23072782 -0.023553113 -0.19108869 -0.31714544 0.009042686
-0.20752367 0.07851526 -0.12215022 -0.22071746 -0.112410896 -0.37760043 -0.19274104 -0.06644858
-0.068122216 0.0042794645 -0.23896368 -0.16168745 -0.0735568 -0.20730603 0.016455017 -0.156742
0.34388384 0.018026054 0.5572458 0.23143756 3.6505086 1.5354147 -0.41938093 -0.6465011
0.6309236 -0.2457475 -0.03354033 1.1549926 -0.17734838 0.8553255 -1.3574837 1.049019
0.14054585 -0.09590152 0.12680635 -1.1029578 -2.6380136 2.1218436 -4.7846375 -0.26506314
-3.443851 -0.12529314 -0.8418115 -0.38626176 0.10231095 2.773991 -1.0417442 -0.11056362
-0.301419 2.1558077 -0.8840867 -0.2756828 -1.9550174 -0.7039647 0.20673297 -0.74463564
0.264551 -0.072818056 -2.8416133 -1.0650163 -2.1012526 -2.168777 -1.1139029 -0.8796054
-0.013311129 0.0077885143 0.7235796 0.44933113 2.338882 -1.0259895 -0.607583 -2.2514443
0.2833908 -1.0893508 0.38397664 0.5593988 0.74298054 0.8894278 -1.2428507 0.96447116
0.29634628 -0.03330585 -1.273348 0.12176906 -2.7343857 1.0703903 -4.0790195 0.2055129
0.0069568455 0.08053091 -0.14534764 -0.17294016 -0.14416051 -0.0038124025 -0.17862803 -0.18806504
-0.26198372 -0.104842395 -0.22273757 -0.35433057 -0.1298085 -0.11840652 0.15602806 -0.27076232
-0.15410106 0.035103306 -0.07988168 -0.031885028 -0.13703349 -0.18439828 -0.13843498 -0.3481151
-5.1618 0.013751929 0.18471411 0.31361908 -1.4333953 -0.9929008 -0.9452146 0.6805652
0.3283934 0.20363393 0.11099571 0.33707497 -0.15297903 -0.0078287115 -2.8357432 0.1580509
00000000: 4abf 3bbe c420 4d3e cdb7 b0be bac3 d5be
00000010: 5204 b2be 6d1d a4be 234f 1cbe 1a9f 26bd
00000020: 22cb d7be fb3c 11be aa52 ffbe a713 debe
00000030: af99 bcbc 3450 c5bd c04a ca3c 1687 acbe
00000040: 0e48 7e3d b0b0 65bc 272e bd3b c32a 63be
00000050: 9407 e5be 9205 2cbe 1242 243d 7b6d 68be
00000060: c32d 19be dba0 43be a82a 2f3f ee43 843e
00000070: 80fe 1940 a811 23bf 6ddd 0cbf 6fa2 cdbf
00000080: 2e43 033f 9ddd b1bf ecdc 853e c616 1c3f
00000090: 44cc 9c3e 83df 273f a3f9 bfbf 84a4 383f
000000a0: 593e 3a3f e3fa 8abe 2535 2ebe 283c 7dbf
000000b0: 93c2 3dc0 801a 953f 6eb5 9dc0 6e44 ec3e
000000c0: f0cc a83d 5007 5dbc 695a 95be c0ab 93be
000000d0: 0789 b93c 05bb 06bd 013e babd e2f5 4fbe
000000e0: 7f1b 633d 8048 113d e9e7 12bd 5903 e4bd
000000f0: 1640 93be a489 0cbe 183d a5bd 3cff 9ebe
00000100: 1cfe a0be 6058 273e 7b1b 92be 582b f8bd
00000110: dd54 47be d849 95bd 89b4 93bd 1530 61be
00000120: 626d 5a3e c12a 17be b4be 623f 1448 3d3f
00000130: f1a8 1c40 4091 ddbf 8d2c 443d cafe e8bf
00000140: d5e2 413f 97fc 8ebf 0ca7 a83d 20ad 543f
00000150: 4797 fa3e f28e 713f 2144 a7bf c51c 8a3f
00000160: 38ad 613e 604b 8ebe 3661 84bd d7b7 4dbf
00000170: 7ab6 24c0 bd00 d03f 75ee c5c0 26ca 813e
00000180: 8cdb 9b3d d47a d03d 1ce7 5abe 27df a7be
00000190: 2061 3cbe f6e6 c4bd e3a6 23be 6edc 21be
000001a0: 8ae2 91be 2e9e 123e 7d2f 4ebe 9de0 8dbe
000001b0: 14aa 60bd 34db f4bd 523e ce3d 3df1 e5bd
000001c0: a716 40be 7e32 d8bd eaaa 51be 1c6f 37be
000001d0: 3ed9 7bbe d163 9cbe 520c f0bd ab90 213e
000001e0: 4432 fc3d 4834 f43d 2c3e a5be ea43 6cbe
000001f0: 75f2 c0bc c1ac 43be e360 a2be c627 143c
00000200: 1681 54be 9ccc a03d e529 fabd c203 62be
00000210: af37 e6bd d854 c1be e85d 45be 3116 88bd
00000220: a983 8bbd c03a 8c3b e5b2 74be 6591 25be
00000230: f3a4 96bd 0848 54be accc 863c fa80 20be
00000240: 8b11 b03e 60ab 933c a9a7 0e3f f8fd 6c3e
00000250: efa1 6940 7888 c43f 19b9 d6be 1981 25bf
00000260: 3684 213f 3ca5 7bbe 9661 09bd ccd6 933f
00000270: d09a 35be 9df6 5a3f 07c2 adbf 4146 863f
00000280: 40eb 0f3e 0468 c4bd 86d9 013e b92d 8dbf
00000290: 37d5 28c0 49cc 0740 c01b 99c0 5bb6 87be
000002a0: 0e68 5cc0 d84c 00be f580 57bf 1ac4 c5be
000002b0: 6788 d13d 1289 3140 e057 85bf 2e6f e2bd
000002c0: 9753 9abe c1f8 0940 8253 62bf 4c26 8dbe
000002d0: 033e fabf 0837 34bf cfb1 533e 71a0 3ebf
000002e0: 3b73 873e a221 95bd fedc 35c0 7452 88bf
000002f0: ec7a 06c0 3ecd 0ac0 5f94 8ebf d22d 61bf
00000300: ec16 5abc cb36 ff3b 833c 393f bb0e e63e
00000310: 3eb0 1540 a053 83bf 8f8a 1bbf aa17 10c0
00000320: 9918 913e d96f 8bbf 9698 c43e c234 0f3f
00000330: f933 3e3f 8ab1 633f bb15 9fbf 95e7 763f
00000340: b3ba 973e b76b 08bd 11fd a2bf 0f62 f93d
00000350: 2d00 2fc0 8d02 893f 5487 82c0 f971 523e
00000360: 40f6 e33b 64ed a43d 03d6 14be 3a17 31be
00000370: d09e 13be 80d9 79bb 44ea 36be 1f94 40be
00000380: bb22 86be 9cb7 d6bd 5115 64be d16a b5be
00000390: 85ec 04be 1e7f f2bd d2c5 1f3e 5ca1 8abe
000003a0: abcc 1dbe 7cc8 0f3d 0299 a3bd e099 02bd
000003b0: 8252 0cbe e7d2 3cbe e6c1 0dbe 243c b2be
000003c0: 772d a5c0 c54f 613c b225 3d3e ae92 a03e
000003d0: 7f79 b7bf bf2e 7ebf 96f9 71bf 8539 2e3f
000003e0: 2e23 a83e 6a85 503e b851 e33d 1795 ac3e
000003f0: 89a6 1cbe ff43 00bc d17c 35c0 18d8 213e

2.bias f4 [48]
-0.4576522 1.0928907 -0.113889754 0.9764775 -0.17165442 -0.2569156 1.7262937 -1.8354815
0.9061439 -0.084842175 -0.15471818 0.16427077 -0.24716121 0.0127358325 -0.17690688 -0.25120488
1.1510168 0.5340199 -0.103404954 -0.39659137 -0.1675696 1.0197476 -0.010727654 -0.4016504
-0.2068051 -0.19771123 -0.1778743 -0.3736766 -0.3250167 -0.21424706 -0.8582968 1.0948373
-0.38064632 1.112272 0.61825055 0.013876888 -0.28375295 -0.1579003 1.8006015 1.3799567
1.2290801 0.08839677 0.46016386 -0.10597369 -1.3700837 0.47486565 0.02121517 0.7302638
00000000: 6451 eabe d8e3 8b3f 083f e9bd 6efa 793f
00000010: 2dc6 2fbe 718a 83be 31f7 dc3f 0ff1 eabf
00000020: 0cf9 673f bcc1 adbd 716e 1ebe 9936 283e
00000030: d417 7dbe f4a9 503c 1427 35be ed9d 80be
00000040: 8554 933f 87b5 083f fac5 d3bd 060e cbbe
00000050: 5d97 2bbe 1787 823f 0bc3 2fbc 1fa5 cdbe
00000060: b7c4 53be d074 4abe ae24 36be 8a52 bfbe
00000070: 9768 a6be 9563 5bbe 57b9 5bbf a123 8c3f
00000080: 13e4 c2be ee5e 8e3f ab45 1e3f e35b 633c
00000090: 1148 91be 9eb0 21be 1c7a e63f 6ca2 b03f
000000a0: 7f52 9d3f 5e09 b53d 999a eb3e bc08 d9bd
000000b0: e75e afbf 9721 f33e 70cb ad3c 92f2 3a3f

4.weight f4 [2, 48]
-0.12164906 2.2076771 0.11418987 1.7456301 0.086091876 -0.14139807 1.7138265 -0.48647586
2.0850255 -0.01924258 -1.7377318 2.1494112 -0.07982288 -0.074856654 0.13626257 0.0055117155
2.3395443 2.4724185 1.7592763 0.026177648 0.036094643 2.5564039 -0.0031055908 0.273327
1.413721 -0.18795869 -0.08497189 0.07233506 0.063381895 -0.023313746 -0.33427024 2.4260304
0.036776014 1.6188715 2.0920174 -0.8883339 -0.0348234 0.1288439 1.5094955 2.4194965
2.0880527 -0.7410379 1.7676097 -0.014113446 1.0212244 2.5593498 1.8389672 2.3478768
0.02281344 2.4309049 0.09609551 2.2928994 0.07325789 0.13911486 1.6087307 -1.4187914
2.599257 -0.12775753 -0.7567255 2.4183598 0.090423495 -0.05848137 0.13143978 -0.017794225
2.8277476 1.495664 2.33164 -0.07177991 0.078116246 2.3881464 -0.042177305 -0.10067626
2.6105978 -0.074764006 0.054364428 0.09862337 0.053150386 0.04688695 -0.67117 1.9936577
-0.3492546 0.12920262 1.3376045 2.0780263 -0.036456257 -0.2254414 1.4126465 2.3359408
2.3465288 -0.026008492 1.9629625 -0.044211242 0.91161615 1.5068672 0.31410712 2.309684
00000000: 2423 f9bd 954a 0d40 61dc e93d cf70 df3f
00000010: f050 b03d a8ca 10be ab5e db3f 5d13 f9be
00000020: 0f71 0540 9da2 9dbc ff6d debf f48f 0940
00000030: 2e7a a3bd 724e 99bd 6a88 0b3e 9f9b b43b
00000040: 18bb 1540 1b3c 1e40 f72f e13f 8272 d63c
00000050: fad7 133d 1f9c 2340 2b87 4bbb 84f1 8b3e
00000060: cff4 b43f 3e78 40be be05 aebd 6724 943d
00000070: 5ece 813d 78fc bebc 7825 abbe 1544 1b40
00000080: 72a2 163d 2e37 cf3f 9de3 0540 da69 63bf
00000090: fba2 0ebd a8ef 033e 2637 c13f 08d9 1a40
000000a0: a8a2 0540 a9b4 3dbf 0941 e23f 153c 67bc
000000b0: 7bb7 823f 63cc 2340 4763 eb3f 9d43 1640
000000c0: 40e3 ba3c f293 1b40 b9cd c43d ddbe 1240
000000d0: 3c08 963d 2074 0e3e e3ea cd3f f59a b5bf
000000e0: 3a5a 2640 dfd2 02be c3b8 41bf 68c6 1a40
000000f0: f42f b93d 298a 6fbd 2698 063e 32c5 91bc
00000100: d1f9 3440 eb71 bf3f 9739 1540 5801 93bd
00000110: 69fb 9f3d 64d7 1840 1cc2 2cbd 5b2f cebd
00000120: 0914 2740 df1d 99bd 3cad 5e3d 0dfb c93d
00000130: 38b4 593d 880c 403d ccd1 2bbf 2d30 ff3f
00000140: 80d1 b2be b14d 043e a036 ab3f 62fe 0440
00000150: 2853 15bd 1cda 66be 9ad1 b43f 0e80 1540
00000160: 872d 1640 c30f d5bc 5b42 fb3f d916 35bd
00000170: ad5f 693f 06e1 c03f a6d2 a03e ddd1 1340

4.bias f4 [2]
0.6232026 3.3095694
00000000: 358a 1f3f fccf 5340
